easydisplay/checkpoints/discriminator_checkpoint.pth (torch_old, 299189 bytes, 59 tensors)

conv1.0.weight f4 [3, 3, 3, 3]
00000000: 2474 7a3b 098c ba3c 33d7 493b 28fd ff3b
00000010: f4fa a1bc ff3c 853c cbdf 853b 406c 323d
00000020: f802 adbc 6be5 96bc cec1 fabc ab06 0a3c
00000030: df70 80bc 445a 95bb 64e7 5e3c 4384 9cbb
00000040: ba18 ff3c 375f 1fbc 4093 ecbc 0703 0e3c
00000050: b26d 923c 2a76 393c aa6c 6fbc 9c3d 94bc
00000060: 6033 463d b4b1 323d fe39 a13b e547 f4bc
00000070: d314 1dbc a34b bf3c 51a7 793b 6da5 2d3d
00000080: 46f4 24bd 4527 afbb 61d5 15ba 2c84 bc3c
00000090: 9633 21bc 5192 bcbc 9011 d03a 2321 9e3c
000000a0: f868 853c 82e0 24bc 5e1f 69bc 4f38 133c
000000b0: efec d1bb 712d 63bc 40d1 bbba a54d 8e3b
000000c0: 6cb0 ec3c d2ad 413d 42e5 a7bb 76cf 49bc
000000d0: 9cda f63b f196 c6bc c03b 0ebb 54c9 963c
000000e0: 110a bf3c 45af 873b 0e95 2cbc 51bd a53c
000000f0: caa7 65bc 0579 b33b e9fd 37bd 9f35 0a3d
00000100: 357d cf3c 28e7 213c 2ac5 173d 6493 823c
00000110: 5a02 423c f45b 853a 2a8c 9ebb 1c6c 903b
00000120: d4ed 79bc b1e6 01bc d6f2 23bc 46d5 0bbb
00000130: c244 41bd 091e 213d df71 a93c 8cb3 cfbc
00000140: 2823 e03c
0.0038216198 0.022771852 0.0030798435 0.007812161 -0.019772984 0.016264437 0.004085516 0.043560266
-0.02111958 -0.018419942 -0.030609991 0.008424441 -0.015678821 -0.0045578796 0.0136049725 -0.004776509
0.03113972 -0.009727291 -0.028878808 0.008667714 0.017874572 0.011319676 -0.01461331 -0.018095784
0.04838884 0.043626502 0.0049202433 -0.029819438 -0.009587484 0.023351496 0.0038094113 0.04239409
-0.04027202 -0.0053452575 -0.0005715695 0.023012243 -0.009838959 -0.023018988 0.0015874375 0.01930291
0.016285405 -0.010063292 -0.01422867 0.008985593 -0.0064064185 -0.013865815 -0.0014329329 0.004342752
0.028892718 0.04728491 -0.005123765 -0.012317529 0.0075333845 -0.024241896 -0.0021703094 0.018406548
0.02332023 0.004140767 -0.010533584 0.020231875 -0.014017055 0.005477073 -0.044919882 0.033742543
0.025328258 0.009881772 0.037053265 0.015939422 0.011841381 0.0010174499 -0.004838486 0.004407419
-0.015254457 -0.007928536 -0.010006627 -0.0021336838 -0.047184713 0.039335284 0.02068418 -0.02535417
0.027360514

conv1.0.bias f4 [3]
00000000: 2860 91bc 78ca e33b 9462 b93d
-0.017746046 0.0069516264 0.090520054

conv1.2.weight f4 [3]
00000000: a472 803f 1c74 793f 85cc 7b3f
1.0034986 0.97442794 0.9835895

conv1.2.bias f4 [3]
00000000: 48db 2bbc 2711 703c d146 873b
-0.010489292 0.014652527 0.004128315

conv1.2.running_mean f4 [3]
00000000: 36c0 503b caeb b03b c41f 863d
0.0031852848 0.005399202 0.065490276

conv1.2.running_var f4 [3]
00000000: cc6e 1039 0e47 7f38 0c82 d83a
0.00013774185 6.0862913e-05 0.0016518249

conv1.3.weight f4 [16, 3, 3, 3]
00000000: 65e2 c5bc a6f9 853b 9d20 e6bc 0d89 513c
00000010: 4a22 e03c 023e 193b 85a4 64b9 524f 5d3c
00000020: 11ae a4bb e5aa a9bb fc62 9f3c dd45 b63c
00000030: 861e f0bb b5e3 b33b 55dd fabb c9a1 47bb
00000040: 6a80 0cbd 70d7 26bc 6808 123d 62c5 9e3b
00000050: 371c debb 0c61 94bc 1820 14bb 6885 343c
00000060: ad64 0dbc 814a e239 594c 61bc 1565 4c3c
00000070: 2814 c13c 9671 b23b 480d 933c e982 d2bc
00000080: 434b 8cbc 95f2 94bc ec4d e63b 94ac 67bc
00000090: 73d8 12bb faa4 583c 7925 0e3d 6300 8aba
000000a0: aec2 c9bb c7f6 5f3c c761 0abc 2dbe 60bc
000000b0: 08c0 91bc 360c 2d3c 4de7 ba3c ee6d efba
000000c0: 4122 1dbc b11f 6fbc c912 a0bb 27c9 8dbc
000000d0: 597f 92bc d29a 383d d064 9aba 3aa6 a8ba
000000e0: f4ba e3bc 4ad7 9aba da12 21bc 3ab9 ab3c
000000f0: 2a6b 093d 6510 3bbc a99f 83bb 8ecc 933c
00000100: e715 7e3c 8523 b63c c775 a2bc aaaf 8cbc
00000110: 296e b9bc 95a5 603c c5dc a63b d2b7 1cbc
00000120: 1ca3 ceba 1ba9 66bc fd14 c03b 2898 363c
00000130: d1e8 243d d75c 16bd 8aa0 debc 6ed3 9d3c
00000140: 001e 2dbc 4fe6 093c 1641 0e3d ce9e 8bbc
00000150: d2f6 9c3b 24de ad3b b91d d5bb ae88 a23c
00000160: a9c0 da3c 2eae fc3c f006 cd3c 2b79 043d
00000170: 0740 19bb 44df 93bb 06cf 6abb 132b 9d3b
00000180: 5500 be3b c76c 9b3c 729b ffbc d1f7 99bc
00000190: af79 11bc 7aba ddbc 2283 cfbb 7912 20bd
000001a0: e529 b13c bb4c 273d 6cad 99bc 3174 ad3b
000001b0: 7efa dfba 4511 683c 995a 073d 8f21 263c
000001c0: 2e80 83bc 1495 d73a 9216 3b3d 0d5f 62bb
000001d0: b530 b4bc 027b fabc 1348 f9bc 8693 16bc
000001e0: f5dc 7a3c f1e6 24bc a6a0 c4bb d048 d0bb
000001f0: aa28 99bc d67e f4bc 32ae 953c 4757 11bc
00000200: 6b2c 8dbc faed b63c 77c5 d33c da12 53bc
00000210: 8cff 6d3c 36c4 6d3b ef12 d33b 62d0 aabc
00000220: 3966 bdbc 832a d2bc 20d6 38bc 097b 5dbd
00000230: a8d8 b8bc 41e5 a03c 47d5 0dbd 0eb1 21bd
00000240: 9bf9 063c 3dc2 b5bc 04e6 5d3c dc8a 263d
00000250: d4bd a7bb 577d 223c bf10 dd3c d20f d8bb
00000260: faeb c9bb 85b1 bdbb cfe6 00bd b1cb f53c
00000270: cc80 513a 10b8 073c 1eec a03b b447 c73b
00000280: fc01 9bbc b0fc 70bb ea23 debc 6284 58bc
00000290: 5ed9 88bc df66 a13b 9d3b 9cbb 6d89 e4bc
000002a0: 8d93 50bc 251d 31bd fe66 4dbd c44e c83b
000002b0: ed26 843a 0bb7 87bc 48cb a4bb 8686 c03c
000002c0: 7045 ba3c 4710 c639 3e5c 01bc 5600 e53c
000002d0: 92fd 803c 599e fa3c 2981 35bd 72fa 4abc
000002e0: ee37 613c 3338 96bc 148a 013d 1fac e9bc
000002f0: 3f53 cc3c 95b8 053d 69ad b2bb 7c91 2bbc
00000300: e5db a93a 6b3e ea3b 2f86 403c b03b 3fbc
00000310: 7ee8 e0bc 5b35 67bc b22f ef3c dfc0 60bc
00000320: 3c0b 9fbc 9c70 133c 5e27 333c bade f5b9
00000330: 0294 f03c c62c 86bc ae61 c73c d4a1 a23c
00000340: 2c91 ccbc 0175 03bd 44fd a23b 7e91 b73b
00000350: 1cff 033c ea80 c13c 9da7 77bc 2c39 3a3c
00000360: f59b b3bc 64c6 87bc ca08 df3b e83d 6c3c
00000370: e052 9a3c 5be9 883b 59d1 9abc 6fa1 183d
00000380: d35c 4f3c 77ef 4f3c c5ed af3c fd8c 8aba
00000390: 0a4d 96ba a830 353c 1709 64bb 1910 7cbb
000003a0: b4a7 04ba 053d 7f3a e348 45bc 034e 63bc
000003b0: f36b 913c 1558 ab3b fb54 933b 7e07 e13b
000003c0: 5c7e 07bb bdb0 f0bc 4c59 aa3b d0eb 10bc
000003d0: caf2 033c 2155 583c cbde 573c d00d 09bc
000003e0: 725c 1f3c ee43 3dbd d4d8 b1bc 2c29 22bc
000003f0: ebd7 743c cd4a 0b3d e5f2 ca3c a38b fbbc
-0.024155805 0.0040885983 -0.028091723 0.012789023 0.0273601 0.0023382907 -0.00021805063 0.013507681
-0.005025633 -0.005177843 0.01945638 0.02225011 -0.0073278574 0.0054897913 -0.0076557794 -0.0030461422
-0.034302153 -0.0101832 0.035652548 0.004845307 -0.006778266 -0.018112682 -0.0022602137 0.011018135
-0.00862996 0.0004316159 -0.013751113 0.012475272 0.023569182 0.0054456694 0.017950669 -0.025697188
-0.017125731 -0.018182078 0.007028332 -0.014140267 -0.0022406846 0.013222927 0.034703705 -0.001052868
-0.006157241 0.013669676 -0.0084461635 -0.013717216 -0.017791763 0.010561993 0.022815371 -0.0018267015
-0.009590686 -0.014594958 -0.004885052 -0.017307831 -0.01788299 0.045069523 -0.0011779312 -0.0012866922
-0.027799107 -0.0011813429 -0.009831155 0.020962346 0.033549465 -0.011417483 -0.0040168357 0.018041875
0.015508152 0.022233734 -0.019831551 -0.017173607 -0.022635536 0.013711353 0.0050922357 -0.009565311
-0.0015765163 -0.014078404 0.005861877 0.011144675 0.040261094 -0.036709633 -0.02717616 0.019265857
-0.010566235 0.008416726 0.03473004 -0.017043497 0.0047901655 0.0053060222 -0.0065037874 0.019840565
0.026703196 0.030844774 0.025027722 0.032342117 -0.002338411 -0.0045126993 -0.0035828962 0.0047963946
0.0057983794 0.018972768 -0.031202052 -0.018794926 -0.008879109 -0.027066458 -0.006332771 -0.039080117
0.021626422 0.04084466 -0.018759452 0.005293392 -0.0017088202 0.014164274 0.033045385 0.010139837
-0.016052332 0.0016447627 0.04567582 -0.0034541518 -0.021995882 -0.030576233 -0.030429875 -0.009190446
0.015311469 -0.010064826 -0.006000596 -0.006356336 -0.018696148 -0.029845636 0.01827154 -0.008870906
-0.017233094 0.022330273 0.025850995 -0.0128829125 0.014526259 0.003628028 0.006441466 -0.020851318
-0.023120033 -0.025655037 -0.01128152 -0.054072414 -0.022564247 0.019640567 -0.034627225 -0.039475493
0.0082382215 -0.022187347 0.0135436095 0.04065977 -0.005119065 0.009917579 0.026985524 -0.006593683
-0.006162164 -0.0057889842 -0.031470116 0.030004354 0.00079919095 0.00828363 0.00491096 0.0060815457
-0.018921845 -0.0036771707 -0.027116735 -0.013215156 -0.016705211 0.0049255933 -0.0047678486 -0.027897561
-0.012730491 -0.043240685 -0.05014705 0.006112905 0.0010082402 -0.016566774 -0.005029116 0.023501646
0.022738189 0.0003777763 -0.007895527 0.027954262 0.015745912 0.030593084 -0.04431263 -0.012388812
0.013746245 -0.018337345 0.031625822 -0.028524457 0.024942039 0.032646734 -0.005452801 -0.010471698
0.001295921 0.007148554 0.011750742 -0.011671945 -0.02745461 -0.014111842 0.029197548 -0.013717859
-0.019414537 0.008999016 0.010934679 -0.00046895986 0.02936745 -0.016378772 0.02433857 0.019852556
-0.024971567 -0.032094005 0.0049740393 0.005602061 0.008056428 0.023621041 -0.015115646 0.01136617
-0.021924952 -0.016574092 0.0068064677 0.0144190565 0.018838346 0.0041782088 -0.018898653 0.03726333
0.012656408 0.01269137 0.021475682 -0.0010570582 -0.0011467051 0.011058964 -0.0034795457 -0.0038461743
-0.000506039 0.00097365706 -0.012041303 -0.01387358 0.01775167 0.005229006 0.0044962144 0.006867348
-0.0020674681 -0.02938115 0.0051986333 -0.008845285 0.008053491 0.01320389 0.013175677 -0.00836511
0.0097266305 -0.04620736 -0.021709837 -0.009897511 0.014944057 0.034006882 0.024774024 -0.030706232

conv1.3.bias f4 [16]
00000000: f167 c43b 4a8d 093e 488a 303e b586 243d
00000010: d39e c93d 43c2 e23b 2a67 1d3e d481 df3d
00000020: 0647 7a3d 2829 863d 6e1f 3f3d b3b8 1dbe
00000030: b569 7a3d 79bf d9bd 80b6 84bd 5226 0fbd
0.005993836 0.13432804 0.1724025 0.04016753 0.098447464 0.0069201305 0.15371385 0.109134346
0.06110289 0.06550819 0.046660833 -0.15402488 0.061135966 -0.10632224 -0.064801216 -0.034948654

conv1.5.weight f4 [16]
00000000: eae1 833f dd92 833f 5c02 803f 5ccf 773f
00000010: bcaa 853f 62fd 783f 26ef 7f3f c5c9 803f
00000020: 2a25 7c3f cf30 793f ce56 813f ed6b 7c3f
00000030: 6e62 803f 5287 7e3f 5a92 813f 236f 833f
1.0303319 1.0279194 1.000072 0.9680078 1.0442729 0.9726163 0.99974287 1.0061575
0.9849421 0.973401 1.0104616 0.9860218 1.0030038 0.9942523 1.0122788 1.0268291

conv1.5.bias f4 [16]
00000000: edd1 e6bb 6292 603c 3b07 9ebc 189f 623c
00000010: 9f4a 413c 3ea6 013c 4799 513c 4f26 af3c
00000020: 74e5 69bb fa89 1c3c 5249 b2bb 8d9b 1f3b
00000030: b311 693c 6a03 00bc a181 f9bb 186c 1b3b
-0.007044068 0.013706775 -0.019290557 0.013831876 0.011797576 0.00791317 0.012792892 0.021380572
-0.0035689743 0.009554381 -0.0054408694 0.002435419 0.014225411 -0.007813314 -0.00761433 0.0023715552

conv1.5.running_mean f4 [16]
00000000: eee9 643c 5e10 0b3e 1d58 313e cf80 423d
00000010: 4509 ca3d a3f8 3c3d d094 313e e44a e23d
00000020: fc76 7b3d b8b7 953d c964 603d 1178 d138
00000030: 77e9 b43d 58f8 4339 5745 4839 c121 f03b
0.013971789 0.13580462 0.17318769 0.047486123 0.09865049 0.046135556 0.17341924 0.110494405
0.06139277 0.07310432 0.054783616 9.988261e-05 0.088335924 0.00018689164 0.00019099317 0.0073282425

conv1.5.running_var f4 [16]
00000000: 66ed be39 1a65 f03a 19ff 9f3a dc41 213c
00000010: 4995 2f3b 7e91 913a b669 773b 0c5c 2f3b
00000020: 9ce2 213b 29d5 ed3a 8bfe 1f3b 0f20 e436
00000030: 49c9 7d3c 4569 db36 1020 c236 5e2f ba39
0.000364165 0.0018340677 0.0012206762 0.009842362 0.0026791862 0.0011105982 0.0037752218 0.0026757745
0.002470172 0.0018145192 0.0024413194 6.7986616e-06 0.015489885 6.5389636e-06 5.785383e-06 0.00035511976

conv2.0.weight f4 [16, 16, 3, 3]
00000000: a219 ca39 b2f2 353c 4352 8cba 414e b03b
00000010: e758 0f3b b917 e5bc 2bdd e3bc fdda 7abc
00000020: 5c34 f1bb d5ae 993c dfda 3cbc 29eb 6bbc
00000030: c251 62bc 614f 72bc d64a 143c 6686 d53b
00000040: 42b4 ba3c c42e 183b eb80 62bc b96a 3f3b
00000050: e3bb 883c d8e7 243d 777d bf3c a550 423b
00000060: cec2 123b 9945 283c 5f65 b63c cd9a 4ebd
00000070: fe0e 243c 4aa9 32bc edca 4bbb 5994 313c
00000080: 248a 763b 20e9 22bc bb9e 263d c5a3 a63b
00000090: e47a 60bc f302 e1bc cde7 4bbc 1e57 debb
000000a0: 5974 4a3a 8709 aebc 22f9 d4bc eba0 b4bb
000000b0: ecf7 5b3c 4750 d23b 67de be3c dba6 ffbb
000000c0: 9528 94bc c549 4d3c c22b c53c f178 32bc
000000d0: 1720 603c 68b8 1ebc 59e3 2bbc 2829 f8bc
000000e0: 43f8 a0bb 5dac 22bb c785 8e3b 076a 0fbd
000000f0: 11a7 0ebd f6cb bb3b 7c05 9a3c 2809 9b3a
00000100: 77ac 563c 6adb 5c3d 42bf 0bbd 218a ef3c
00000110: 3cc4 eb3a f808 053d 6bad 003c 0507 433c
00000120: 93e8 703c def5 523c 2ce9 b73c 4cbd 94bb
00000130: 44e5 303a fd0e 403c 7d63 4c3d a5f8 443b
00000140: 6b50 263b a435 eb3c 6742 c6bc a820 f73a
00000150: 6493 8f3c c978 c0bb a326 2a3d 09ac abba
00000160: bbd9 a03c 39e6 ac3c fa94 38bd 8e7b 793c
00000170: 0386 ec3b b7f5 adbc c2e7 97bc 7de6 11bd
00000180: 3f72 5c3c c598 ddbc 92a5 4cbc 3b44 e63c
00000190: 34fc 2d3d 3124 463c b80c da3c ee5b 9cbc
000001a0: 3ada 07bc 85cf d03c 065b 43ba 7375 9f3c
000001b0: 8279 203c a1ab 46bc 3598 e03c 0c33 60bc
000001c0: a941 923c 1b9f 87bc 71ea 98bb 8283 b43b
000001d0: 2623 01bc fc06 abbc dbfd d7bb 0d40 d63c
000001e0: 0ef9 003d 1ef2 653c 5078 803d 331b 7fbc
000001f0: 563e b0bb f58e a2bc 5c84 bcbb cbc7 77bc
00000200: 3b4b cfbc 69dd b33b 5a8b 33bd fb9f b1bc
00000210: eec7 0a3d 9b91 0ebc 9114 a33c 614f 973c
00000220: 6ce3 5a3c b7e3 76bb 0866 66bc ce4e ee3b
00000230: 644a 47bb c2ef 673c fab9 8fbc 3acf f1bc
00000240: e91f bcbb f13c cc3c 6e7d 12bc 4bc6 673c
00000250: 76d3 533b e48c a4b9 29d5 833c 35a2 a93c
00000260: 423d 8a3c 4bc6 8bbc 801b 663c 7b1b 703d
00000270: 48e4 373d 38f5 213c fd57 9d3c aacd 193d
00000280: 83e8 10bd a738 46bc a8da edbc 11b8 1a3c
00000290: 150c 7dbc 34e2 773b 9039 ae3c c109 4d3b
000002a0: 3ff6 ed3b e82a 923c 8323 243c 0388 473c
000002b0: 8179 b9bc cccc f13c 57ed 533c bfd4 b1bb
000002c0: ff99 073d 76bb 9c3c 4459 cd3c 306b a83c
000002d0: 30c2 c83c 4df8 e93c e3b4 233c bcd4 3dbb
000002e0: f5bf 07bb 4fbe cabc 2da9 403d 63b5 16bc
000002f0: 44e3 ae3c 6258 053d 6bb0 283d 846d 45bc
00000300: a6e7 b53c 3a44 95bc e8b1 513b a2fa e1bc
00000310: aa82 aebb eca4 adbc 87be fcbb 8e0f 0b3a
00000320: ec01 39bc f4b6 ad3c be38 ad3c ca20 d9bb
00000330: dbf8 f83c 8df5 333d 7329 0abd 8675 7abc
00000340: ed63 3dbb b561 34ba 9442 083d 5b1c 073d
00000350: 88dc 84bc 622f 38bc 28b4 b33b 09e9 6bbb
00000360: abb4 af3b 7868 31bd a981 823c 6654 da3b
00000370: 43aa e7bc 4c54 043b 6478 b23c ca5f 99bc
00000380: deb6 c43c 9888 0cbd 2f6b 9bbc 2268 65bc
00000390: 89b9 643c b615 003c 56ca 203c d80c 6a3c
000003a0: 559d 513c 4e97 fc3c 5e1d 333d 1049 893c
000003b0: 6b13 413a cd02 183d 25eb fc3c 8e41 7e3b
000003c0: a31f 933b b57a adbc 0a56 f139 6ec5 48bb
000003d0: 5a54 67bc fe66 df3b df6f ee3c 98a0 2e3d
000003e0: e20d 46bc 677e 823c eaa9 9a3b 5a0f fdbb
000003f0: ed3f cc3c 43c8 b03c 68f8 97bc cb34 063d
0.0003854754 0.011105226 -0.0010705668 0.0053804223 0.0021873058 -0.027965413 -0.027815422 -0.015311
-0.007360978 0.018760124 -0.011526792 -0.014399328 -0.013813438 -0.014789433 0.009051045 0.0065162657
0.022791032 0.0023221234 -0.013824682 0.0029207899 0.016691154 0.040260166 0.023375256 0.0029650119
0.0022393945 0.0102705 0.022265134 -0.0504406 0.01001334 -0.0109046195 -0.0031096295 0.0108385915
0.003761896 -0.009943277 0.04067872 0.005085441 -0.013701174 -0.027467227 -0.012445402 -0.0067852875
0.00077230256 -0.021244777 -0.025997702 -0.005512347 0.013425808 0.006418261 0.02329941 -0.007801873
-0.018085757 0.012529795 0.024068717 -0.0108930925 0.013679526 -0.009687521 -0.010491216 -0.030293062
-0.0049124076 -0.0024821975 0.0043494436 -0.035013225 -0.034827296 0.005731101 0.018801443 0.001182829
0.013102642 0.053920187 -0.034117945 0.02924067 0.001798756 0.032479256 0.007853846 0.011903529
0.0147038875 0.012876002 0.022450052 -0.0045391675 0.00067480304 0.0117223235 0.049899567 0.003005543
0.0025377523 0.028712101 -0.024201585 0.0018854337 0.017526336 -0.0058737737 0.041540753 -0.0013097535
0.019635072 0.021105872 -0.04506395 0.015227212 0.007218124 -0.02123533 -0.018543128 -0.0356202
0.013454973 -0.027050385 -0.012490647 0.028108707 0.042476848 0.01209359 0.026617393 -0.019086804
-0.008291775 0.025489578 -0.0007452223 0.019465184 0.009794595 -0.01212588 0.027416328 -0.0136840455
0.017853575 -0.01655536 -0.0046666195 0.005508841 -0.007881915 -0.020877354 -0.006591541 0.026153589
0.031487517 0.014034776 0.06272948 -0.01557045 -0.005378525 -0.019843558 -0.005753083 -0.015123318
-0.025304427 0.0054890406 -0.043834068 -0.02168273 0.033882074 -0.008701707 0.019907268 0.018470468
0.013359886 -0.003767235 -0.014062412 0.007272578 -0.003040933 0.014156284 -0.017544735 -0.029517759
-0.0057411087 0.024931403 -0.008941038 0.014146398 0.0032322085 -0.0003138549 0.016092854 0.02070723
0.016874913 -0.017062327 0.014044642 0.058619957 0.04489544 0.009885125 0.019206995 0.037549652
-0.03537799 -0.012098468 -0.029034927 0.009443299 -0.015444775 0.0037824037 0.021267682 0.0031286331
0.007262021 0.017842725 0.010018232 0.012178424 -0.022640945 0.0295166 0.012935004 -0.0054269726
0.033105846 0.019132357 0.02506698 0.020558923 0.024506658 0.028560782 0.009991857 -0.002896591
-0.002071378 -0.02474895 0.04703634 -0.009198519 0.021348603 0.03255499 0.04118387 -0.012050036
0.022205185 -0.01822101 0.003199691 -0.027585331 -0.005325635 -0.021196805 -0.0077131423 0.0005304747
-0.011291962 0.021205403 0.02114522 -0.006626223 0.030392101 0.043935347 -0.033730935 -0.015286809
-0.0028898672 -0.00068810146 0.03326662 0.032986026 -0.016218439 -0.011241766 0.005484123 -0.0035997054
0.0053621135 -0.04331252 0.015930967 0.006662893 -0.02827943 0.0020191846 0.021785922 -0.018722434
0.02401298 -0.034309953 -0.018972008 -0.014001878 0.013960251 0.007817676 0.009813866 0.014285289
0.012793859 0.030833866 0.04372918 0.016758472 0.0007365259 0.037112046 0.030873844 0.0038796398
0.0044898554 -0.021176675 0.00046031206 -0.0030635255 -0.014119232 0.0068176975 0.029106079 0.042633623
-0.012088271 0.015929414 0.0047199624 -0.0077227773 0.024932826 0.021579867 -0.018551067 0.03276519

conv2.0.bias f4 [16]
00000000: 18cd 61bd 5dcc 3b3c 3ae1 123d f74c b03d
00000010: d689 223d 36e4 ea3b 643b dd3c 8b87 363d
00000020: dcfc 963d 7bee 3dbd 4348 92bd 0f19 37bd
00000030: 928e e6bc e007 8a3d e234 863c edf6 99bd
-0.055127233 0.011462298 0.035859324 0.0860843 0.03968223 0.007168318 0.027005859 0.044562858
0.07372448 -0.04637001 -0.07142689 -0.044701632 -0.028144155 0.06739783 0.016382638 -0.075178005

conv2.2.weight f4 [16]
00000000: 47fe 7d3f 71e7 823f 6aea 813f c757 7e3f
00000010: 0f3c 813f acce 813f 19d6 7a3f 7772 843f
00000020: b019 7e3f 39d0 833f 4939 803f 22ea 7d3f
00000030: beac 833f f9c8 7e3f 93aa 793f 9465 7d3f
0.9921612 1.022688 1.0149662 0.9935269 1.0096453 1.0141196 0.9798294 1.0347432
0.99257946 1.029792 1.0017482 0.99185383 1.0287092 0.9952541 0.975259 0.9898312

conv2.2.bias f4 [16]
00000000: 5db6 50bc c3f4 c13b 8b36 693c 8083 3abb
00000010: fce2 b23c 49de f8bb 5242 c9bc 8fab c8bc
00000020: 06a2 b6bc f4b4 02bc c308 513c a2ae 073c
00000030: 278d 94ba 515f c03b b122 0bbc 6146 a9bc
-0.012738791 0.0059190704 0.014234195 -0.0028459728 0.02183675 -0.007594858 -0.024567757 -0.024495868
-0.022294056 -0.007977713 0.012758437 0.008281382 -0.0011333571 0.0058707376 -0.008492158 -0.020663442

conv2.2.running_mean f4 [16]
00000000: b32d df3d f787 1e3e 9542 093e 7603 4c3e
00000010: 667a 353e 6838 103e 2478 053e a538 473e
00000020: 3b6c 213e 30a7 533e a685 b63d deb6 ee3d
00000030: 6263 d43d 7d43 313e 627c 303e ba5b 9c3d
0.10897388 0.15481554 0.13404305 0.19923195 0.17722473 0.14084017 0.13034111 0.19455202
0.15763943 0.20669246 0.0891221 0.11655973 0.10370518 0.17310901 0.17234948 0.07634683

conv2.2.running_var f4 [16]
00000000: 62e4 553d e097 073e 762f 323d fc71 833d
00000010: 9516 873d 5b2a 413d 01a3 bc3d f16e 5c3d
00000020: 4e7c df3d e463 bf3d e77b ce3c 185a 553d
00000030: 44cc 113d b872 733d c6f4 a73d 4211 2c3d
0.052219756 0.1324153 0.043502294 0.06418225 0.06596104 0.047159534 0.09210778 0.05381674
0.10912381 0.093452245 0.025205566 0.052087873 0.035595194 0.059435576 0.08200984 0.042008646

conv2.3.weight f4 [32, 16, 3, 3]
00000000: 5bd8 1dbc 7cd0 72bc 8e1f 18bd f393 10bd
00000010: 4792 b9bc 3228 113c c58f 653c 2136 e0bc
00000020: 0ded a83c 180f 033b d7a5 02bd e920 5fbb
00000030: 8bd2 60bd 6e11 f9bc 8a1f 6d3c 49e1 dcbc
00000040: fb0c 7bbc a075 79bc 13c3 58bc 5ca8 59ba
00000050: 4a69 f8bb 776f ea38 3ca8 843b c3b4 5f3c
00000060: c440 473c ae14 2c3d 4af1 803c 06a6 3fbc
00000070: 0084 06bd 2805 c4bb 640d 63bc cd4f 44bc
00000080: 3227 b8bc 6b1d 4e3b 39c9 27bc 01b5 b23b
00000090: ad46 60bc 2d06 103c 027a 9a3a ce21 963b
000000a0: 6070 ce3c e29c 0d3c 2057 433c 4068 ee3c
000000b0: 631f 1a3d bfae 45bc ae28 a8bc 4a0d ddbb
000000c0: 4f49 c3bb d518 5c3c b064 fd3c 775a 04bd
000000d0: 7d55 73bc 2c7b e13c 23d1 88bc 1017 613c
000000e0: 0307 71bc 5ca7 973c 2ef1 a3bb 408d ddba
000000f0: 495a d03b 8523 d7bc 6f95 9dbc 7263 0ebd
00000100: bfc6 bbbb a9be 03bd b89c acbb 4bc4 c8bb
00000110: 78b5 bebc 3b1a a13b baab c6bc a149 13bc
00000120: 19bb 9c3b d73a 933c 4539 be3c 7434 fcbc
00000130: 1887 113c ad40 5a3b c645 4a3c a4f6 09bc
00000140: 3073 adbc f227 c93c e916 a83c 8852 1f3c
00000150: 0661 8b3c dee6 0d3c 1976 8c3c 9c89 c43c
00000160: 6658 92bb b2cd 2d3c 015c 8dbc b1de 7ebc
00000170: b6a9 6cba 9e40 45bc 0004 59bc c171 50bc
00000180: e1bf 7bbc a835 efbc e5c5 03ba 4aa0 ba3c
00000190: e029 3abb c609 61bb de3d 123b e794 adbc
000001a0: e1f1 883c 3d88 eb3a d331 7cbc 3a33 c93b
000001b0: eb70 e23b d6f1 663c eb98 a03c c0b1 f33b
000001c0: 198b 683c 3c40 1c3d 44da 8c3c bc88 353d
000001d0: f1c9 a93c a1ae 823b 87a1 a5bb dc0e 1cbc
000001e0: 5a2b 5a3c 93a8 c7bb 79ae cd3b 672e 8fbc
000001f0: 4605 edbc b411 5fbc 6a4b 18bc be4c 853c
00000200: 11ac eebb 57d4 99bc f54e 6f3c 5574 583c
00000210: b4c1 e23c b92d 8dbb 69eb 9a3b 4556 e23c
00000220: 53cb cfbb f596 e93c 1a43 d2ba 8110 a3bc
00000230: bc72 d8bb 7cdf 90bc c344 893a 0e74 edbc
00000240: 93eb 0dbd 8520 bfbc a9d7 3f3c 9420 41bd
00000250: 012e cebb 6c71 e23c 141d 9f3b 55d9 a6bc
00000260: e294 3f3b e951 bfbc d07e 12bc 59c2 2eba
00000270: b02c 44bd fcdc f23b 7d5e e1bc d504 b03c
00000280: baa5 28bc 293f 30bc 828d b8bb 36b0 17bd
00000290: 3503 993c 009e 8a3c 8768 ab3a 3036 01bb
000002a0: 3555 05bd dfef 0c3d 4a50 783c bcb5 37bc
000002b0: 32ab aabc 53aa 25bb ca7f 8dbc 12c5 f8bc
000002c0: 936f ebbc a7ac 133c 112e 1a3c 9710 febc
000002d0: ebec 4e3b 04d1 8d3c 337a 1bbd 9b99 a7bb
000002e0: 9ca2 493c ce4b 823c 5f32 f7b8 2b5b 0a3d
000002f0: cf85 3dbc e247 d2bc 4d2e c8bc 54ce 76bc
00000300: 7b8f b5bb cdc8 7abd 6be2 113d 6937 f5bc
00000310: 5fd0 9bbc b7c9 42bc 0792 d4bc 54fd 5cbc
00000320: 9eda 3abc 788d 59bd 5156 0a3c 1a6b 833b
00000330: 0a61 bbbc a7e3 473d 400d 25bc add1 d83c
00000340: 144f 80bc 8017 103c 487b dc3a cd7d 3c3d
00000350: 6717 96bb bdd2 a13c 9343 feba 0046 1ebc
00000360: 283a 32bc 85b3 503c 4629 babc 334c e4bc
00000370: 6e3e 5a3c 1226 c33c decb f7bc 4d57 f0bb
00000380: a9ed 09bb 7b40 b8bc 9bf3 cfbc b301 feba
00000390: 37e3 b13b ab80 68bc bb43 3e3c 2634 14bc
000003a0: e0be cf3c 05c0 08bd 57ef 093c 29d0 2fbb
000003b0: 6ee6 69b9 b04b 573c e16b 94ba 8005 6d3c
000003c0: 1bb4 153d 46ee 12bc 102c 32bc 53a1 8bbb
000003d0: eeb4 e2bc 2920 9c3c 9189 8fbc ac22 c73c
000003e0: 1653 b9bc ca54 d6bc 7652 c3bc c291 91bc
000003f0: 8cf7 0cbc f9df 703c 26b2 afbc b910 4ebd
-0.009634103 -0.014820214 -0.037139468 -0.035297345 -0.022652758 0.008859681 0.014011328 -0.02736956
0.020620847 0.001999801 -0.03189644 -0.0034046716 -0.05488829 -0.030403819 0.0144728515 -0.026962893
-0.015322919 -0.015225798 -0.013230103 -0.00083029806 -0.007580911 0.000111787514 0.0040483754 0.013653937
0.012161437 0.04201191 0.015740056 -0.011697298 -0.03284073 -0.00598206 -0.013858173 -0.011981917
-0.022479627 0.003145064 -0.010240846 0.0054537063 -0.013688725 0.008790535 0.0011785629 0.0045816666
0.025200069 0.008643361 0.011922628 0.029102445 0.03762759 -0.0120655885 -0.02052721 -0.006745969
-0.005959667 0.013433655 0.0309318 -0.032312836 -0.014851925 0.027524553 -0.016701287 0.013738409
-0.014711144 0.01851242 -0.005003116 -0.0016903058 0.006358419 -0.026262054 -0.019236295 -0.034762807
-0.0057304795 -0.03216425 -0.005267706 -0.0061269156 -0.02327989 0.004916457 -0.024251807 -0.0089897225
0.004783046 0.017972393 0.023220668 -0.03078673 0.0088823065 0.003330271 0.012345737 -0.00842062
-0.02117309 0.02455518 0.020518737 0.009724267 0.017014038 0.008661 0.017146157 0.023991399
-0.0044661043 0.010608124 -0.017255785 -0.015556023 -0.00090279744 -0.012039332 -0.013245583 -0.012722434
-0.015365572 -0.02920039 -0.0005026742 0.02278151 -0.0028406307 -0.00343381 0.0022314708 -0.021189166
0.0167169 0.0017969679 -0.015392738 0.00614014 0.0069104335 0.014095744 0.019604167 0.007436961
0.01419332 0.038147196 0.01719392 0.044319853 0.020726176 0.0039881025 -0.005054656 -0.009525027
0.013316 -0.0060930937 0.0062769023 -0.017478181 -0.028933179 -0.013615061 -0.009295324 0.016271945
-0.0072836955 -0.01877801 0.014606227 0.0132113295 0.027680255 -0.004308429 0.00472777 0.027629027
-0.006341377 0.028514365 -0.0016041726 -0.01990533 -0.0066054743 -0.01768469 0.0010472763 -0.028986003
-0.03464849 -0.023330936 0.011709132 -0.04715021 -0.006292105 0.027641974 0.0048557613 -0.020367304
0.0029233028 -0.023354487 -0.008941367 -0.00066665333 -0.04789418 0.0074115973 -0.027510876 0.02148668
-0.010293419 -0.010757246 -0.0056321034 -0.037033282 0.018678287 0.016921043 0.0013077416 -0.0019716136
-0.032551963 0.034408446 0.015155861 -0.011212762 -0.020833585 -0.0025278523 -0.017272849 -0.030367408
-0.028739726 0.0090133315 0.009410397 -0.03101377 0.003157432 0.01731158 -0.037958335 -0.0051147467
0.0123068355 0.015905287 -0.0001178726 0.03377835 -0.011567547 -0.025669042 -0.02443614 -0.015063841
-0.005540786 -0.061226655 0.03561632 -0.029933648 -0.019020258 -0.011888913 -0.025948538 -0.0134881325
-0.011404661 -0.05311343 0.008443431 0.0040105702 -0.02287342 0.04880109 -0.01007396 0.026467169
-0.015662707 0.008794665 0.0016821409 0.04601841 -0.0045804265 0.019753808 -0.0019398801 -0.009660244
-0.010878123 0.012738113 -0.022724759 -0.027868366 0.013320548 0.023821864 -0.030248579 -0.007334626
-0.0021046198 -0.022491684 -0.025384715 -0.0019379169 0.0054286974 -0.014190833 0.011612828 -0.009045636
0.025359571 -0.03338625 0.0084188795 -0.0026826954 -0.00022306453 0.013140604 -0.0011323654 0.014466643
0.036548715 -0.008967942 -0.010874763 -0.0042611747 -0.027674165 0.019058304 -0.017521651 0.024308525
-0.022622626 -0.026163477 -0.023843031 -0.017769698 -0.008603942 0.014701837 -0.021447252 -0.050308917

conv2.3.bias f4 [32]
00000000: 9136 fc3c 4628 97bd ef08 0b3d 0923 99bd
00000010: 6988 9a3d 9b05 693c 63c4 0a3d d2a5 05bd
00000020: 8ee1 803d 7b64 d53c d2ae 95bb ad4b afbc
00000030: 866f 8cbc bbd4 b53d d84f 2f3c a01f 353d
00000040: dc66 ad3b 1eb5 71bc 76cf 583d 708e 8f3c
00000050: edb7 82bd 7f7a 143d fca9 24bd b91f 4c3d
00000060: 458d d73c 45cc 86bc a8b9 a8bd 5630 583c
00000070: 41cf 323d 2e1b 423b e792 4cbd 33be c0bc
0.030787738 -0.073807284 0.033944067 -0.074773856 0.075455494 0.014222528 0.033878695 -0.03262884
0.06293021 0.02604889 -0.0045679593 -0.02139839 -0.017143022 0.08878466 0.010700189 0.044219613
0.005291803 -0.014752654 0.052932225 0.017523974 -0.06382737 0.036249634 -0.040201172 0.04983494
0.02631248 -0.016454825 -0.08238536 0.013195118 0.043654684 0.002961825 -0.049944784 -0.023528194

conv2.5.weight f4 [32]
00000000: 8bcb 843f 9318 803f f5f5 7c3f 2bee 793f
00000010: cb0e 763f bb40 793f 1c46 7b3f e129 7d3f
00000020: 2c28 7e3f 5fcb 783f 7995 7c3f b10a 763f
00000030: 1b0a 743f 824a 7c3f 1f70 7e3f b630 7b3f
00000040: e555 803f 236a 773f b764 7c3f 89f9 833f
00000050: 5ceb 6f3f 4449 763f 0f17 7b3f 1929 843f
00000060: c3bc 763f 7b4e 753f 2027 793f 2603 763f
00000070: 3909 813f 19c6 7b3f 536c 703f 13af 863f
1.0374616 1.00075 0.988128 0.9762904 0.9611632 0.97364396 0.98153853 0.9889203
0.9928005 0.9718532 0.9866558 0.96110064 0.9532792 0.9855119 0.99389833 0.981212
1.0026213 0.96646327 0.9859118 1.0310527 0.93718505 0.96205544 0.9808206 1.0325042
0.9638178 0.95822877 0.97325325 0.96098554 1.008094 0.9834915 0.9391529 1.0522178

conv2.5.bias f4 [32]
00000000: 20fc a03b db06 eebc 9f13 103d 1b8d e13c
00000010: e577 e33c 07fb 59bc 0023 233d a8b9 e2bb
00000020: f276 0c3c 271d af3c f3cf 0d3d da01 053d
00000030: c3c4 58bc 72eb 2ebd 15f2 31bb a66c 27bd
00000040: 883b 803c 0555 e53c 41eb 19bc 81fc 60bc
00000050: 2221 2abd 22ea 4e3c 9a78 46bc 396f cd3c
00000060: 2af8 133d d5af 223d fd1b 83bc 2324 0abd
00000070: dfde c63c 850b 9f3b 70de 5abc 9340 9cbc
0.004912868 -0.029056003 0.035174962 0.027533105 0.027767131 -0.0133044785 0.0398283 -0.0069191046
0.008573281 0.021376206 0.034622144 0.03247247 -0.013230505 -0.042705007 -0.0027152349 -0.0408751
0.015653387 0.027994642 -0.009394468 -0.013732077 -0.041535504 0.012629064 -0.012113715 0.02507745
0.03612534 0.039718468 -0.016004557 -0.03372587 0.024276195 0.004853668 -0.013358697 -0.01907376

conv2.5.running_mean f4 [32]
00000000: 7fe0 d63d c7dd da3d efb7 eb3d d2a2 533d
00000010: 92e8 0f3e 9b44 153e 9cb8 d33d ce90 c93d
00000020: 1e90 003e 0993 d43d ff65 ba3d 248e d93d
00000030: 5767 9d3d a15b 163e e7a3 d73d b788 0f3e
00000040: b525 233e bf54 cf3d e3db e23d 9ea4 0e3e
00000050: 26ea 533d 330c 1a3e 2352 a03d 6c18 113e
00000060: 770a 0d3e d528 df3d fdc4 013e 3a13 df3d
00000070: b095 ed3d 779c ac3d cb98 a53d 9b18 ab3d
0.10492038 0.10686832 0.11509692 0.05166895 0.14053562 0.14576952 0.10337946 0.098420724
0.12554976 0.10379607 0.091014855 0.10622814 0.07685726 0.14683391 0.10529309 0.14016996
0.15932353 0.10123586 0.11077096 0.13929984 0.051736973 0.15043716 0.07828166 0.14169472
0.13773523 0.1089646 0.12672801 0.10892339 0.11600816 0.08428281 0.080857836 0.083543025

conv2.5.running_var f4 [32]
00000000: b91f 893c 2e0b 923c 5537 613d d1eb 293c
00000010: 7891 de3c 9777 593d ac14 643c d0bc b13c
00000020: 2cf7 f73c cf13 ba3c a269 c63c d509 fd3c
00000030: 14c6 793c 19e8 c43c a6ba 6f3c 15b1 a63c
00000040: ee27 db3c aedd 9d3c 5963 093d e551 183d
00000050: a595 283c cb2b 2f3d 58de 913c b142 ae3c
00000060: dcd7 6b3d bd39 2e3d 06a6 043d 3047 c73c
00000070: 7e8c ac3c 1ba7 1d3c bee5 133d 5639 923c
0.01673876 0.017827597 0.05498441 0.010371164 0.027168974 0.053092565 0.013920944 0.021696478
0.030269228 0.022714524 0.024220292 0.030888477 0.015244979 0.024036454 0.014631903 0.020348111
0.026752438 0.019270744 0.03354201 0.037187476 0.010289584 0.042766374 0.017806217 0.021272035
0.057578906 0.042535532 0.032384895 0.024325937 0.021063086 0.009622361 0.03610777 0.017849606

linear.0.weight f4 [1, 16384]
00000000: 0ec3 84bd c939 a8bc f892 11bd 35aa 3bbd
00000010: 594a 5dbd a960 cbbc c9cd cb3a 9cdc 5fbc
00000020: e08d d53c a586 13bd 67d9 383b fa07 f0bc
00000030: 5ae2 88bb 590e 1dbd 7478 03bd 20eb f2bc
00000040: ae73 783b 2e68 c3bc dbbe abbb 570a fcbc
00000050: 61c5 a5bc e700 02bd 9866 4f3c ab9f b2bc
00000060: 8f59 e8b8 61e3 c7bc 2a0d 2dbd 14ee ecbc
00000070: a7d3 29bd 228a babc 24fa 0cbd 6bfc a6bc
00000080: dc86 ba3c d9d9 24bc 1798 f43b b9b4 5ebb
00000090: 7cd8 3cbc ebcd e5bb db1d 5dbd 0b8f 943a
000000a0: a2c4 06bc f381 3dbd f1b9 c6bc 3380 b6bc
000000b0: 6bd6 203c c75d 65bc 96f6 733b db56 ccbc
000000c0: 8d6f 813c d239 63bc d308 aabc 240c a0bc
000000d0: f47b 9bbc f597 d0bb cfed d3bc 463c eebc
000000e0: e6bd b1bb 58c8 a33c f130 193d 01cb 2cbb
000000f0: 0cc5 8abc f4b6 e3bc f0e4 0c3b 2043 81bc
00000100: 7724 d6bc 6866 f03c f3e5 f6bb 1837 f4bb
00000110: a1ff 48bb 5a31 30bc ea40 50bc d03d 01bd
00000120: 6269 b3bc fbae 7a3c 776d 0eb9 2c1e 513b
00000130: 75c3 92bb 90a3 033c c00a 1e3c e62f 6e3c
00000140: 31b1 9b3c ae00 f1bc dd6b 11bc 5d33 adbc
00000150: 41fe 823c e174 033c 333f fdbb 7420 2aba
00000160: 53a6 483a 055d c5bb 2e71 cb3b 681e 7abc
00000170: 4352 bd3b 4cb2 b43c 52e1 69bc 67eb a1bc
00000180: 96d8 9a3c a7fb 813c 8704 b03b f3dc 493c
00000190: e4ae 543c 78ab 393c 7735 a83b 8da8 96bc
000001a0: c749 e2bc 2289 443c 5886 1dbd c760 38bc
000001b0: 2e04 eebb 5a75 48bb 1d70 1bbd 201b 303c
000001c0: c5db 6bbc 9570 693c 7228 44bb e651 2fbb
000001d0: 0ee7 cebc 14dd 10bd 59fb 6cbc a0a9 193d
000001e0: 6e71 173c a26e b33a 59e6 a5bb ca01 8abb
000001f0: 823c 8fbc 9d44 453c 76b1 053d 63f0 a73c
00000200: 4e12 71bc 23c3 fdbb ca54 953c 5e77 96bc
00000210: c20b 60bd 83a1 683c 7876 773c 1e62 983a
00000220: 8f9c e23c 79e7 5ebc ccaa 463c 1426 7fbc
00000230: e840 1a3c 47ac c33c ba48 85bc ead0 b73c
00000240: 0651 de3b 1764 82bc 9341 623c a263 a8b9
00000250: 00cf c8bc cca0 cdbc b696 de3c 8292 74bc
00000260: cfb0 5c3c a398 833c a559 00bd 838b 43bd
00000270: c0a6 2c3c e09e 27bb 25f9 4dbd 1274 c63c
00000280: 6401 753c d243 883c 4b84 a93c 82b8 0dbd
00000290: 8646 90bb c719 18bc 0f30 30bc 0a25 b7bb
000002a0: f9e4 0cbd 3747 3fbb 7a01 91bc fa34 61bc
000002b0: bc34 fcbb 951d e8bc ae66 dc3c c39b 1b3c
000002c0: 47ce c139 84fc 9cbc 196a 7dbb 3572 dbbc
000002d0: b48a 123b fa1c bbbb 7d63 f63b 5bef cabc
000002e0: 60b0 983c 8c25 e3bc 8922 babb db55 053c
000002f0: a7e5 373b 13e2 cd3c 917f aabb 4d83 1d3d
00000300: 2a86 04bb a806 2f3d a2ed 30bb 7078 9bbc
00000310: deb4 22bb f655 8bbc db7f 2bbc bbe7 03bd
00000320: d0ae d5bc 25ad 2b3c 44b9 acbc c32a ba3c
00000330: 2726 093c 305d c93c 12d4 053c ed6f 413d
00000340: 6b47 c0bb f13b 6e3b 2497 f0bc d0ab cbbc
00000350: ec0b 0f3c dc3c 29bd 3de7 b1bb 8a11 b4bc
00000360: 23d8 92bc 8731 00bc 75b2 f9bc 4cfa 11bc
00000370: 987c 8abc 7aa6 3d3c 2a37 b8bc a405 eb3b
00000380: 24c4 953c a1ee f63b a484 57bb 5b17 87bc
00000390: b145 57bc b6fc 3abc 56fe 89bc 51cb 823c
000003a0: bb07 adbb 9323 e1bc 19e8 2ebc 4f0e 77bb
000003b0: 08af 933c 5cb9 dcbc 6c31 1e3c d907 263c
000003c0: 19b4 9c3b 9f2a 693c 399d 823b 40a6 84b9
000003d0: daed 7e3c 78bf 043a e207 1c3b 3d6c dbbc
000003e0: ff6b 8c3c 55dc 923b 5ba1 aebc 0634 b03c
000003f0: d130 bb3b b3b7 59bc d93a c13b 8897 80bb
-0.06482516 -0.020535367 -0.03554055 -0.04581662 -0.05402598 -0.024826365 0.0015549 -0.013663437
0.026068628 -0.03601708 0.0028205754 -0.029300679 -0.004177374 -0.03834376 -0.032097295 -0.029653132
0.0037910747 -0.023853388 -0.0052412576 -0.03076665 -0.02023572 -0.03173914 0.012658738 -0.021804651
-0.00011079304 -0.024400415 -0.042248882 -0.028922118 -0.041461613 -0.022770945 -0.03441824 -0.020384034
0.022769384 -0.010061705 0.0074644196 -0.003398223 -0.011526223 -0.0070130727 -0.05398355 0.0011334134
-0.008225592 -0.046266507 -0.024258586 -0.022277927 0.009816746 -0.013999409 0.0037225834 -0.02494376
0.015800262 -0.013868766 -0.02075616 -0.01953704 -0.018980004 -0.006365771 -0.025870232 -0.029081475
-0.005424249 0.019992992 0.03740019 -0.0026366117 -0.016939662 -0.0277972 0.0021498762 -0.015779078
-0.026140435 0.029345706 -0.0075347363 -0.0074528567 -0.0030669945 -0.010753954 -0.012710789 -0.03155309
-0.021900836 0.015300508 -0.00013582954 0.0031908853 -0.0044788667 0.008034602 0.009646118 0.014537787
0.01900539 -0.02941927 -0.008875814 -0.021142656 0.015990378 0.008023472 -0.007728481 -0.0006489821
0.0007654179 -0.0060230517 0.0062085604 -0.0152660385 0.0057776286 0.022057675 -0.014274912 -0.019765569
0.018902104 0.015867068 0.0053716335 0.012320745 0.01298115 0.011332385 0.0051333266 -0.018390918
-0.02762307 0.011995586 -0.0384582 -0.011253542 -0.007263682 -0.0030587525 -0.037948716 0.010748655
-0.014395659 0.014248033 -0.0029931334 -0.0026751696 -0.02525666 -0.035367087 -0.014464223 0.037515283
0.009243352 0.0013689587 -0.00506286 -0.004211639 -0.017484907 0.012040284 0.032639943 0.020500368
-0.014713837 -0.0077442094 0.018228907 -0.018367466 -0.054698713 0.014198664 0.015103929 0.0011625921
0.027662544 -0.013604992 0.012125682 -0.015573043 0.009414889 0.02388586 -0.01627003 0.022438485
0.006784561 -0.015916867 0.013809579 -0.0003211769 -0.024512768 -0.025101088 0.027171474 -0.014927508
0.013469889 0.016063994 -0.03133549 -0.04774047 0.010537803 -0.0025576875 -0.05028643 0.024225269
0.014953945 0.016633902 0.020692965 -0.03459979 -0.0044029383 -0.00928349 -0.010753646 -0.005589132
-0.034398053 -0.0029186734 -0.0177009 -0.013745541 -0.007696716 -0.028334418 0.02690443 0.009497586
0.00036965517 -0.019163378 -0.0038667975 -0.026787857 0.0022360506 -0.0057102414 0.007519184 -0.024772337
0.01863879 -0.027727865 -0.0056803864 0.008138145 0.0028060467 0.025132215 -0.0052031954 0.038455296
-0.002022157 0.042730957 -0.002699711 -0.018978328 -0.0024827044 -0.017008763 -0.010467495 -0.032203417
-0.026084334 0.010478293 -0.021084435 0.022725469 0.008370913 0.024580568 0.008168237 0.04722588
-0.0058678887 0.0036351646 -0.029368944 -0.0248622 0.00873087 -0.041317806 -0.005429177 -0.02198102
-0.017925328 -0.007824308 -0.030480603 -0.008909773 -0.016905114 0.011575336 -0.022487242 0.0071723033
0.018282004 0.007535771 -0.0032885456 -0.016490629 -0.013139174 -0.01141279 -0.01684491 0.01596609
-0.0052804626 -0.027482783 -0.010675454 -0.0037697738 0.018027797 -0.026943855 0.009655338 0.010133707
0.0047822115 0.014231353 0.0039860276 -0.00025300868 0.015559638 0.00050639315 0.002380841 -0.02678501
0.01714134 0.004481832 -0.021317175 0.021509182 0.0057126065 -0.013288426 0.0058969078 -0.003924314

exp_avg f4 [3, 3, 3, 3]
00000000: 698a f4b6 1e84 c9b7 099e 26b8 8cb1 9237
00000010: 0b19 5137 292d 4436 3c95 9c38 5728 8938
00000020: 6b91 4738 bbb8 40b8 fc3f 74b8 ebe4 a1b8
00000030: f984 37b7 689d 4cb7 603d cbb7 ba75 6c38
00000040: 6be9 4138 cadf f637 8749 53b8 0893 86b8
00000050: 741b b3b8 fe05 bcb7 d656 bfb7 836e 08b8
00000060: c972 4238 28a8 1c38 152e aa37 0240 3739
00000070: 65a9 2f39 cc3a 9738 96b0 5139 7d13 5439
00000080: 3582 d438 72e1 8238 a2b6 6f38 ae61 dab6
00000090: da2d c439 3b8a ae39 efd6 5a39 c276 c439
000000a0: b5d6 ad39 a908 7a39 15f5 3039 f682 4939
000000b0: 1f55 dc38 6f89 c039 c159 aa39 8ba9 6839
000000c0: 2744 c739 e07e b939 c4fd 8239 715b 5539
000000d0: e2d3 3039 5e4f e538 8bcd 4b37 d1f7 1638
000000e0: 2ae6 c238 7a1a 12b9 27d6 e4b8 8305 73b8
000000f0: b537 0eb9 8aff e0b8 89fe 6eb8 3555 a6b7
00000100: 8832 ba36 9c2b 8b38 1d60 31b9 8461 14b9
00000110: 8e4e b3b8 bdee 2ab9 16ab 0eb9 99b7 9db8
00000120: 4854 0eb8 ed54 1ab7 0d3b 6438 f757 3eb9
00000130: 7d85 22b9 acaf c3b8 5ae5 34b9 43ef 13b9
00000140: 6fd5 b0b8
-7.2878797e-06 -2.4022589e-05 -3.9724666e-05 1.7487233e-05 1.24632015e-05 2.9232563e-06 7.466457e-05 6.540183e-05
4.758073e-05 -4.594841e-05 -5.8233723e-05 -7.7197175e-05 -1.093861e-05 -1.21959965e-05 -2.4228066e-05 5.6376426e-05
4.6232173e-05 2.9429695e-05 -5.0374798e-05 -6.4170046e-05 -8.540499e-05 -2.2414137e-05 -2.280941e-05 -3.252785e-05
4.6360106e-05 3.7349906e-05 2.0287038e-05 0.00017476085 0.00016752405 7.211193e-05 0.00019997577 0.00020225155
0.00010133201 6.2408755e-05 5.715213e-05 -6.5082777e-06 0.00037418195 0.00033290856 0.00020870169 0.00037472515
0.000331571 0.00023845084 0.00016875968 0.0001921764 0.000105062725 0.0003672349 0.000324918 0.00022188404
0.00038007015 0.0003538048 0.00024984602 0.00020347328 0.000168636 0.00010934354 1.21476e-05 3.5993584e-05
9.293512e-05 -0.00013933508 -0.00010911776 -5.7940848e-05 -0.00013562928 -0.0001072875 -5.6980676e-05 -1.982842e-05
5.5491146e-06 6.6361594e-05 -0.0001691584 -0.00014150707 -8.550017e-05 -0.000163014 -0.0001360591 -7.520541e-05
-3.393393e-05 -9.198889e-06 5.441443e-05 -0.00018152581 -0.00015499252 -9.331046e-05 -0.00017251578 -0.00014108144
-8.432089e-05

exp_avg_sq f4 [3, 3, 3, 3]
00000000: 48ae c840 2d0b d840 7b4b d440 b4e0 8940
00000010: afd4 a840 1f7d 9740 43bd 7e40 033b 9440
00000020: 6834 7240 7b88 8940 a173 9340 ed4e 9340
00000030: 793f 0b40 c7b1 3140 84e9 1440 e28f e43f
00000040: b875 0740 bd50 da3f 9f22 5840 51fd 5f40
00000050: 8593 6a40 a2db e03f 0715 0840 008e ee3f
00000060: 10f5 a53f ce0d c83f e7de 8e3f 875d c043
00000070: 9a33 c543 6941 cc43 7fa7 b343 afec b743
00000080: 3724 c643 5d4c b443 224d b843 7bfe c543
00000090: 1327 ca43 0400 cd43 d0ff d043 bbb7 be43
000000a0: 60db bf43 a49c cb43 09be c143 e0e0 c143
000000b0: 1152 cf43 4feb b943 ee56 be43 ad43 c143
000000c0: c25a ad43 4a09 b343 f5fb ba43 fc21 b243
000000d0: e3db b543 7638 bf43 9228 0640 26bf eb3f
000000e0: 5072 073f f165 7840 6a45 5f40 e0e4 f43e
000000f0: c473 8240 6fba 6e40 dcbd 3f3f 42b3 dd3f
00000100: 02d9 ca3f 5ffa 143f d7f0 5740 587b 4540
00000110: 98ec 933e 1635 6340 5abe 4d40 4695 073f
00000120: 980a ef3f d112 cd3f 05e5 4e3f 81b0 5c40
00000130: 8bdd 3d40 8d1d c63e f41c 6c40 65f7 4c40
00000140: f58e 263f
6.2712746 6.751364 6.634214 4.3086796 5.2759624 4.7340236 3.9803016 4.6322036
3.7844486 4.29791 4.607865 4.6033845 2.175749 2.7764757 2.3267527 1.785641
2.11656 1.7055889 3.377113 3.4998362 3.6652539 1.7567027 2.1262834 1.8637085
1.2965412 1.5629213 1.1161774 384.73068 394.40314 408.51102 359.30856 367.8491
396.28293 360.5966 368.6026 395.98813 404.30527 410.00012 417.99854 381.4354
383.71387 407.22375 387.48465 387.75684 414.64114 371.83835 380.67914 386.52872
346.70905 358.07257 373.9684 356.2655 363.71786 382.4411 2.0962262 1.8417709
0.529088 3.881222 3.4886117 0.47830868 4.0766315 3.730129 0.7489908 1.732033
1.5847476 0.58194536 3.3740747 3.0856533 0.28891444 3.550115 3.2147431 0.5296215
1.8675108 1.6021367 0.80818206 3.448273 2.966647 0.3869442 3.6892672 3.2025998
0.65061885

exp_avg f4 [3]
00000000: db7d c139 e8e9 2bbb a2ba 8c37
0.00036905598 -0.0026231948 1.6776208e-05

exp_avg_sq f4 [3]
00000000: 0104 9e42 52a9 b243 f9aa f23d
79.00782 357.3228 0.11849017

exp_avg f4 [3]
00000000: cc77 c437 21f6 6cb7 eddd ad37
2.3420806e-05 -1.41240025e-05 2.072655e-05

exp_avg_sq f4 [3]
00000000: 63fe dc3d fbff 8c3d f8cd 803d
0.10790708 0.06884762 0.062892854

exp_avg f4 [3]
00000000: 3c72 63b8 bef6 f3b6 1645 a737
-5.4227407e-05 -7.270689e-06 1.9940122e-05

exp_avg_sq f4 [3]
00000000: dcda f83e ccfd 623d 1265 693d
0.48604476 0.05541782 0.056981154

exp_avg f4 [16, 3, 3, 3]
00000000: 6ab4 6738 df7d 1338 e315 9836 dc95 b738
00000010: 2480 9c38 bdaa 3038 ea5d d138 1284 8b38
00000020: 3160 2938 d6db be39 914c c839 8af5 d039
00000030: 3b29 b139 b8a3 b439 ed7d bb39 c0dd a139
00000040: 44b8 8939 41cc 9e39 6f2c 483a fb91 493a
00000050: c2c9 463a 9e33 3f3a 6866 3f3a 6665 3e3a
00000060: 89f3 653a 2b76 683a b0cc 633a de9c dfb7
00000070: d00e e4b7 0a5b 2db8 0544 20b8 6a06 3bb8
00000080: 35fe 65b8 92b2 53b8 9b2a 7db8 107d 8eb8
00000090: 2ef8 d4b8 c158 7cb8 98bd 70b8 c295 c3b8
000000a0: 2422 bdb8 f08f c5b8 0bfd c6b8 b9a8 d9b8
000000b0: 4d63 bdb8 271a 0cb9 660b 0cb9 07e7 f4b8
000000c0: ad8c 09b9 7902 09b9 4c97 f3b8 e582 44b9
000000d0: 01bc 44b9 2736 37b9 2267 8538 2494 5238
000000e0: 8176 5638 29c5 6a38 0d63 5c38 2f90 7438
000000f0: face 6e38 4c4d 3638 7fef 1e38 44b6 4c39
00000100: 17a9 1e39 b401 3339 42b4 2039 56ab 0739
00000110: 0aff 0539 0ea3 0839 3f10 dd38 1d42 c838
00000120: f002 4939 a405 4039 833c 1639 7b9a 3e39
00000130: 3630 3939 5324 1639 9fca 9539 50ff 9339
00000140: 13eb 8739 7bdd 8f35 0c49 c133 7563 4635
00000150: 6417 2136 2be6 8b35 9a5b 8534 0af5 3136
00000160: 0b38 2f35 20a5 bab5 7920 6437 a435 9737
00000170: 1806 bb37 9fc9 a837 1967 b837 1656 9b37
00000180: fefe bb37 459c c537 3186 6637 b5d6 d137
00000190: 2365 eb37 3cc7 e537 ccf4 ec37 7eea 0038
000001a0: cd92 fb37 0d4e fd37 6c16 0b38 4fc2 0838
000001b0: bb96 1d38 a663 4238 ab1c 6438 5aab 3638
000001c0: fb26 5c38 2e10 6a38 7d29 6838 11c3 8038
000001d0: 8210 8838 9d74 5638 3efe a038 aa72 9738
000001e0: 149b 9438 2171 a838 37a7 ae38 2dac 8538
000001f0: 55ed ab38 a635 a638 17fd d338 fcd6 cf38
00000200: ef00 ad38 cf87 e138 b0a3 de38 60e0 b838
00000210: a823 ed38 9918 ef38 5319 c738 9893 0336
00000220: 91e3 8eb6 010e 5eb6 d57b 49b5 615f e2b6
00000230: 7b21 e0b6 6304 0ab7 6665 04b7 bd1c e5b6
00000240: fcf3 66b8 c94a bcb8 c423 00b9 b5f3 8ab8
00000250: 4ea3 c9b8 7b38 f7b8 4e9f 8ab8 e243 cab8
00000260: 360d efb8 e0c6 37b9 4412 41b9 033d 32b9
00000270: e558 2fb9 4ef9 37b9 e0cc 2cb9 9440 4cb9
00000280: cc02 57b9 c823 4db9 97a9 63b7 b9a9 95b7
00000290: dfa0 8bb7 4460 10b7 cf6e 19b7 20a3 4ab7
000002a0: 6c35 24b6 6766 afb6 85a4 c9b6 308a 6db8
000002b0: 54b9 7db8 d577 7cb8 378c 43b8 d688 63b8
000002c0: 081a 6cb8 4a6e 32b8 18c0 38b8 daaf 19b8
000002d0: c7ed 96b8 6fed 9eb8 5a13 a4b8 fe70 92b8
000002e0: 98e8 9db8 5a44 9fb8 5e9d a8b8 b292 b4b8
000002f0: d000 bbb8 430c b0b6 a4be 2db7 e660 9fb6
00000300: ef70 9fb6 8e97 5db7 4f3e 42b7 e8a3 93b6
00000310: ee06 5db7 2c74 25b7 35c3 dfb7 462d 18b8
00000320: 57d2 2db8 cfd2 c3b7 7dc1 37b8 e6ea 22b8
00000330: f47a b8b7 6ad8 14b8 3b35 35b8 bc2e 91b8
00000340: 870c a7b8 4646 b0b8 34a9 6cb8 9ad7 8cb8
00000350: a825 97b8 9a84 8eb8 6242 a2b8 6a64 aab8
00000360: d162 a1b8 f808 80b8 40e2 69b8 2aed 6eb8
00000370: 0b80 6db8 7396 4fb8 4440 22b8 8b77 05b8
00000380: b558 f6b7 5bb8 1eb8 3acf 0db8 6afd 22b8
00000390: e751 41b8 1b1f c0b7 1f23 4ab7 6f18 f0b7
000003a0: 5e1c 85b7 1b17 83b7 8d2b 64b8 7550 54b8
000003b0: 167f ebb7 4a1e 64b8 028a 5eb8 ed97 03b8
000003c0: 391b 53b8 0712 48b8 5f06 d5b7 4311 8337
000003d0: 367a 5e37 c4d8 8a37 121c ba37 be8e b037
000003e0: 955b af37 ca08 ae37 8252 c837 1078 d337
000003f0: bae7 95b8 8ac9 aab8 5916 54b8 c931 8eb8
5.5242715e-05 3.5164758e-05 4.532501e-06 8.7540335e-05 7.462528e-05 4.2120682e-05 9.9833895e-05 6.6526365e-05
4.0382325e-05 0.00036403415 0.0003820402 0.00039855792 0.0003379079 0.00034454255 0.0003576124 0.0003087353
0.00026267965 0.0003028829 0.00076360157 0.0007689294 0.0007583165 0.00072937633 0.00073013315 0.00072630343
0.00087719463 0.0008867706 0.00086898636 -2.6656719e-05 -2.7186616e-05 -4.13312e-05 -3.821032e-05 -4.4590248e-05
-5.4834603e-05 -5.0472627e-05 -6.035958e-05 -6.794382e-05 -0.00010155175 -6.016414e-05 -5.7397032e-05 -9.326219e-05
-9.0185815e-05 -9.4205025e-05 -9.488509e-05 -0.000103787934 -9.0307185e-05 -0.00013361183 -0.00013355687 -0.00011677859
-0.00013117744 -0.00013066259 -0.00011615324 -0.00018740779 -0.00018762054 -0.00017472413 6.361144e-05 5.020587e-05
5.113194e-05 5.5973567e-05 5.2544336e-05 5.8308415e-05 5.6936384e-05 4.346417e-05 3.7893184e-05 0.00019522855
0.00015131045 0.00017071405 0.0001532594 0.00012938431 0.00012778878 0.00013030713 0.00010541127 9.549058e-05
0.00019169948 0.00018312648 0.00014327657 0.0001817736 0.00017660935 0.00014318647 0.0002857046 0.00028228248
0.0002592435 1.071879e-06 9.00055e-08 7.3905477e-07 2.4004485e-06 1.0423295e-06 2.483983e-07 2.6517687e-06
6.5274133e-07 -1.3906138e-06 1.359742e-05 1.8025581e-05 2.2294975e-05 2.0121048e-05 2.1982518e-05 1.8517527e-05
2.2410877e-05 2.3556999e-05 1.3740312e-05 2.5014722e-05 2.8061278e-05 2.7391703e-05 2.8247385e-05 3.0735966e-05
2.9989891e-05 3.0196295e-05 3.3161064e-05 3.260589e-05 3.7572096e-05 4.634601e-05 5.4386135e-05 4.3551765e-05
5.248839e-05 5.5805016e-05 5.535175e-05 6.1398496e-05 6.48806e-05 5.113018e-05 7.676751e-05 7.221599e-05
7.0860755e-05 8.031936e-05 8.328113e-05 6.3740044e-05 8.198122e-05 7.9254896e-05 0.00010108406 9.910573e-05
8.249457e-05 0.000107541324 0.00010616274 8.815597e-05 0.00011307682 0.0001140099 9.4937765e-05 1.9606432e-06
-4.258422e-06 -3.308873e-06 -7.5058534e-07 -6.7464284e-06 -6.679618e-06 -8.226462e-06 -7.891422e-06 -6.8280774e-06
-5.50635e-05 -8.9784684e-05 -0.00012220355 -6.625747e-05 -9.614845e-05 -0.00011788398 -6.6100256e-05 -9.644755e-05
-0.00011398869 -0.00017526327 -0.00018412719 -0.00016998131 -0.00016722416 -0.00017545113 -0.0001647952 -0.00019479013
-0.0002050504 -0.00019563653 -1.356974e-05 -1.7841217e-05 -1.6645003e-05 -8.605482e-06 -9.14531e-06 -1.2078119e-05
-2.4469e-06 -5.2273276e-06 -6.0094194e-06 -5.66339e-05 -6.04925e-05 -6.0193084e-05 -4.6622208e-05 -5.4248456e-05
-5.6291028e-05 -4.254122e-05 -4.404792e-05 -3.6641817e-05 -7.196847e-05 -7.5782526e-05 -7.823734e-05 -6.982869e-05
-7.529667e-05 -7.594442e-05 -8.040176e-05 -8.610393e-05 -8.917006e-05 -5.246636e-06 -1.03559905e-05 -4.7498497e-06
-4.7517165e-06 -1.3207913e-05 -1.1577808e-05 -4.4000226e-06 -1.317424e-05 -9.861815e-06 -2.6674572e-05 -3.628179e-05
-4.144231e-05 -2.3343977e-05 -4.38108e-05 -3.8842576e-05 -2.1991764e-05 -3.54875e-05 -4.3203338e-05 -6.922844e-05
-7.965514e-05 -8.4054234e-05 -5.6424367e-05 -6.715879e-05 -7.207255e-05 -6.7957866e-05 -7.737127e-05 -8.124935e-05
-7.695484e-05 -6.105186e-05 -5.576224e-05 -5.6964498e-05 -5.6624453e-05 -4.9492763e-05 -3.8683662e-05 -3.1821004e-05
-2.9366793e-05 -3.784183e-05 -3.3810014e-05 -3.885982e-05 -4.6091063e-05 -2.2902668e-05 -1.20483155e-05 -2.8621607e-05
-1.5868045e-05 -1.5627176e-05 -5.4399996e-05 -5.061967e-05 -2.8073362e-05 -5.4387645e-05 -5.3057454e-05 -3.1374326e-05
-5.0331673e-05 -4.7700505e-05 -2.5394545e-05 1.5624455e-05 1.3260686e-05 1.6551821e-05 2.2186e-05 2.1047304e-05
2.0904272e-05 2.074651e-05 2.3880279e-05 2.5209069e-05 -7.148036e-05 -8.143771e-05 -5.056555e-05 -6.780361e-05
